Lab6/best_model.pth (torch, 96429 bytes, 8 tensors)

layers.0.weight f4 [128, 100]
000000 9d 2a 8e 3c 1a 5d ff bc 99 9b 15 bd e4 17 02 3d
       0.017354304 -0.031172324 -0.036525343 0.031761065
000010 97 19 cb 3c 18 77 8f 3d 80 ba 32 bc 0c 01 c3 bb
       0.024792476 0.07005137 -0.010908723 -0.0059510525
000020 ce 49 96 3c 68 d3 ae 3d 67 7c a4 bd c6 2f 68 3c
       0.01834574 0.08536416 -0.0803154 0.014171546
000030 05 d9 9f bb 00 4f 93 bc 7d 26 4f bd ef b7 28 3d
       -0.0048781657 -0.017982006 -0.050573815 0.041191038
000040 b2 60 6e bc 14 8f 27 3d de 5b f4 3c b1 c4 d9 bc
       -0.014549421 0.040907934 0.029828962 -0.026583048
000050 98 78 93 bc be 08 60 bc cc 70 35 3c 2c 9c 63 bc
       -0.01800184 -0.013673959 0.011074256 -0.013892215
000060 a6 83 25 bd a7 26 7e 3d 43 7d 9f bd 1d 31 6c bc
       -0.040408753 0.06204858 -0.07787564 -0.014416006
000070 05 b8 06 bd 3b 5b 07 3c d6 14 51 bd ec 6c 76 3d
       -0.03289034 0.008261497 -0.05104526 0.06016247
000080 80 73 a7 bc 1f 16 35 bd 05 87 85 bd 87 03 6e bc
       -0.020440817 -0.04421055 -0.065198936 -0.014527208
000090 e1 d4 46 3d 9d 3f 45 bd ec af 50 bd cb 9a 7a 3c
       0.04854286 -0.04815637 -0.050949022 0.015295695
0000a0 7f c7 da bd d1 47 45 bd fa f4 8c 3c 0c 63 66 bd
       -0.10682582 -0.048164193 0.017206658 -0.056246802
0000b0 fa 46 24 3c a9 2e 6c 3d 14 fe fe bc f6 3e d1 3c
       0.010026688 0.057661686 -0.031127013 0.025542717
0000c0 b7 a5 ad 37 6e 4e 0e bd 8f 08 4c bd 58 24 62 bd
       2.0700374e-05 -0.034742765 -0.04981285 -0.05521044
0000d0 33 5e 17 bd 21 19 e0 3b bb 09 23 3d de b3 93 3d
       -0.03695507 0.006838933 0.0398042 0.07212041
0000e0 83 dd 05 bd 9c 1d ff ba fb 57 07 bd dd 71 57 bd
       -0.032681953 -0.001946378 -0.03304289 -0.052598823
0000f0 54 6e 9c bd 7e 9d 13 bd 42 bd c4 bc d8 3b a7 3d
       -0.07638231 -0.036038868 -0.024016026 0.08165711
000100 69 93 03 be 13 c3 81 bc 39 ec 00 bd 37 b2 f4 3c
       -0.12849201 -0.015840089 -0.03147528 0.029870136
000110 47 65 4d 3c 9c 34 38 3d d0 81 82 bd fc 85 28 bd
       0.012536353 0.044972047 -0.06372416 -0.041143402
000120 84 51 2c bc ae 22 0c 3d ca ae 67 3d dd 71 9b 3d
       -0.010517482 0.03421276 0.056563176 0.07590077
000130 c4 a2 81 3d e2 cf b4 3c b4 6c 4b bd 88 62 67 3d
       0.06329873 0.022071782 -0.049664214 0.05649045
000140 3b a9 d0 bc c3 ef 8f bb 82 12 96 bd e5 ab 67 bd
       -0.02547132 -0.0043925955 -0.07327749 -0.056560416
000150 b6 36 5d 3c 3f ef 60 3d 3e a9 17 3d 77 60 50 bd
       0.013501814 0.054915663 0.037026636 -0.050873246
000160 0e 5f 8b 3d 7f 6a 88 3d 29 b7 f2 bc 48 45 ef bb
       0.068052396 0.066609375 -0.029628353 -0.00730196
000170 0c a6 50 bd 6e 0f 13 3d 47 f5 16 bd 41 86 3e 3d
       -0.050939605 0.035903387 -0.03685501 0.046514753
000180 2d e8 86 3d 88 d8 3b bd b2 df 9e 3d 1f b6 90 3d
       0.06587253 -0.045860797 0.0775751 0.07065987
000190 04 b1 15 be 99 d6 5b b9 cf a7 f9 bd 55 5f 07 3d
       -0.14618307 -0.00020965411 -0.1219021 0.0330499
0001a0 25 54 97 bd f2 b8 cd 3c c0 a7 79 bd b6 0f ee bd
       -0.07389096 0.025112603 -0.060950994 -0.116240904
0001b0 29 9a 71 3c 0d d1 89 bd 81 13 9c bc 72 69 4f bc
       0.014746227 -0.067293264 -0.019052269 -0.012659417
0001c0 57 00 33 bd f7 c4 a3 3c e6 a4 47 bd 25 24 b4 3d
       -0.043701496 0.019991381 -0.048741244 0.087959565
0001d0 ca 1f 8f bc 53 58 67 3d 00 97 d3 bb 95 a6 87 3b
       -0.017471213 0.056480717 -0.0064572096 0.004139731
0001e0 be b6 0f 3e 2f 4d 5f bd 12 ce 67 3d 45 0c ac 3c
       0.14034554 -0.054516967 0.05659301 0.021001944
0001f0 21 02 a2 bd 5a ce 3f 3d c4 09 d0 3d a5 55 d8 3d
       -0.07910562 0.04682765 0.10158113 0.105632104
000200 b9 cc 40 bd 99 06 e8 bd e9 61 9d bc e7 35 7d bd
       -0.04707024 -0.113293834 -0.019211726 -0.061818983
000210 5c 84 0b bd 68 2f 7c bd d8 60 c7 bd a9 75 c1 3d
       -0.034061775 -0.061568648 -0.09735268 0.0944627
000220 c8 eb dd bc 74 02 12 bd 07 d7 db bc 03 ea f9 bc
       -0.027089968 -0.03564687 -0.026835931 -0.030507093
000230 63 da 74 3d b3 6e 9c 3c e7 b8 88 3d db 85 06 3d
       0.059778582 0.019095754 0.06675892 0.0328425
000240 8f ff 20 3d f6 6f c6 3d ac f9 1e bd e1 c2 13 3d
       0.03930622 0.096893236 -0.038812324 0.036074523
000250 57 e1 64 3d 24 45 36 3c 38 5e 9d 3c e4 03 e2 bc
       0.055878963 0.011124883 0.019209966 -0.027589746
000260 cb 51 9e bd 84 54 47 3d 9d df 9d bd 68 9c 61 3c
       -0.077304445 0.048664585 -0.077086665 0.0137702
000270 15 97 24 bb 13 c4 1a bd 4d 7d ac bb 5e 33 6a bd
       -0.0025114466 -0.037784647 -0.0052639605 -0.057177894
000280 ab 09 a8 bd b4 92 16 bd 1e c2 cd bd f6 5b 4d bd
       -0.08204969 -0.036761 -0.100467905 -0.05013653
000290 0b 3a 53 3c 4b 2a 82 3c 5a 0a d3 3d 5d de 6e 3d
       0.0128922565 0.015889307 0.10304709 0.05831753
0002a0 6a 9d d2 3b 4a e6 91 bd 2e 9a ef bb 17 a7 34 bd
       0.0064274566 -0.07124002 -0.007312081 -0.04410466
0002b0 74 06 f8 bd fd 81 56 bb 19 e5 ac 3d 60 16 87 3d
       -0.12110606 -0.0032731288 0.084421344 0.065960646
0002c0 0b 80 47 3d 81 96 09 3d ce 82 37 3d 09 e2 c4 bc
       0.048706096 0.033590797 0.04480248 -0.024033563
0002d0 1d 61 09 bd b2 d6 b2 bd e9 0e fb bd c0 4d b9 3c
       -0.03353988 -0.08732356 -0.12258703 0.022620082
0002e0 11 cd 9d bd ab cb e1 bc 0d 26 5f bd 02 25 34 bd
       -0.07705129 -0.027562937 -0.054479647 -0.043980606
0002f0 db 03 8c bd ae 7c ec 3c e3 23 c6 bd c3 35 40 bd
       -0.06836673 0.028868046 -0.096748136 -0.04692627
000300 42 52 8a 3c d2 41 93 bd 8f 50 b5 bc 24 5c 0f 3d
       0.016884927 -0.071902886 -0.02213314 0.03499998
000310 15 b5 33 3c bf 49 e1 bd 9a c5 f9 3d 1f 2f b9 bc
       0.010968466 -0.11000394 0.12195893 -0.022605477
000320 fb 5a 0b 3d d1 37 2a bc 8d 76 b1 3d 0f be ce 3d
       0.034022313 -0.010389284 0.0866519 0.100948445
000330 7f cc 46 bd e5 b6 0b 3d ef 5e 69 3d 4d 01 15 bd
       -0.048534866 0.03410997 0.0569753 -0.036378194
000340 dc f1 2c bc 1d 17 8f 3d 11 87 8f bc ba ad 2b bd
       -0.010555711 0.069868304 -0.01752046 -0.041913725
000350 e4 5a 7c 3c 2c db 5d bd 47 49 6f 3b 9c 92 01 bd
       0.015402529 -0.054164097 0.0036512183 -0.03163396
000360 bb 31 be 3c 12 84 c8 bc 7d 53 fa 3d 2e bd 68 bc
       0.023217073 -0.024477039 0.122229554 -0.01420526
000370 6d 3f 5b 3c b0 fa 03 3d a9 7d 33 3c 97 ad da 3c
       0.013381821 0.032221496 0.010955253 0.026694102
000380 b2 03 bb 3d 59 da db bc 75 ac 9c 3d 49 51 05 3d
       0.09131564 -0.026837515 0.07650081 0.032548223
000390 44 d6 5c bd a3 ab 08 3d 9f e5 81 bd 0a 09 dc bb
       -0.053915277 0.03336681 -0.06342625 -0.0067149447
0003a0 72 80 da 3c 5f 3a 56 3d 99 7e e4 3c fb 38 9a bc
       0.026672576 0.05230176 0.027892398 -0.018825999
0003b0 88 e4 9e 3d 94 01 13 bd 81 4c 3a bd 0a 03 e4 bc
       0.077584326 -0.035890177 -0.045483116 -0.02783348
0003c0 6b 8e 4c bc 00 ad 90 3d a9 c4 b0 3d fe fc 6b 3c
       -0.012485127 0.07064247 0.0863126 0.01440358
0003d0 05 0b d2 bc 9a 10 df 3b a9 dc b2 bd 0d e5 a3 3c
       -0.02564002 0.006807399 -0.08733494 0.02000668
0003e0 98 8d b4 bd 4d bd ac 3d f2 ba d0 bc 60 bc 65 3c
       -0.08816069 0.08434544 -0.025479767 0.014021963
0003f0 71 39 48 3d cb 47 d3 3d a0 5a 5d 3c b0 7a 06 3d
       0.048882905 0.10316428 0.013510376 0.032831848

layers.0.bias f4 [128]
000000 f3 d9 91 3d 18 a0 2f bd c5 26 2f 3d 7a 41 23 3d
       0.07121649 -0.042877287 0.042761583 0.039857365
000010 e5 bd b9 bc ce dd 47 3d 96 18 80 3d a7 9e 87 bd
       -0.022673557 0.048795514 0.062546894 -0.066220574
000020 39 b6 ae bc 16 36 3a 3d b5 a8 ae bd a9 22 3f 3d
       -0.021327125 0.045461737 -0.08528272 0.046663914
000030 60 d5 ae bd 73 20 53 bd 52 b8 91 3c 2e 77 be 3c
       -0.08536792 -0.051544618 0.017788086 0.023250189
000040 a0 a5 db bd 1f d1 86 bd 41 af 8e 3c 48 f3 f5 3c
       -0.1072495 -0.065828554 0.017417552 0.030023232
000050 e7 71 03 3c b4 8b bd bc 04 ee f7 3d dd a7 6c 3d
       0.008022762 -0.023137905 0.12105945 0.057777274
000060 ae c0 4f bd 5c 27 89 3d 65 c6 fa 3c 2f d3 97 3d
       -0.050720863 0.0669696 0.03061218 0.07413327
000070 7e 4c 3c 3d c8 4c 3f bd 4d 6e cc 3c be b3 18 bd
       0.045971386 -0.046704084 0.02495494 -0.03728079
000080 7e 01 f0 3d 78 68 93 3c d0 cf 8c bb 82 b8 37 bd
       0.117190346 0.01799415 -0.004297234 -0.044853695
000090 4e 62 8b 3d be 5d 68 bd 7e 53 2e 3d cc 02 55 bd
       0.068058595 -0.056730025 0.042560093 -0.05200462
0000a0 ff e7 9f 3d 07 25 b3 bd e7 a8 bf 3d 70 e8 ce 3d
       0.078079216 -0.08747297 0.093583874 0.10102928
0000b0 f0 cf f4 3d 07 e3 50 bc e9 10 56 bd d4 ff 32 bd
       0.119537234 -0.01274944 -0.05226222 -0.043701008
0000c0 71 85 8a bd 13 42 f9 b8 e3 3c 35 3c cf 74 8d 3d
       -0.06763733 -0.000118855525 0.01106188 0.06907045
0000d0 ab 95 2e 3d d4 4e 56 3b 0f ae 85 3d 03 60 b5 3d
       0.042623203 0.0032700794 0.0652734 0.088562034
0000e0 62 9a a8 bc f4 41 59 3d 05 07 ab 3c 09 a2 41 bd
       -0.020581428 0.053041413 0.02087737 -0.04727367
0000f0 51 a3 20 bb 0e b8 d3 bc 29 45 ff 3b a0 0a fe 3b
       -0.0024511407 -0.0258446 0.007790227 0.0077527314
000100 30 cd ee bb a5 24 e2 bc a9 d5 b6 3c 5e fb c3 3d
       -0.007287644 -0.027605364 0.022318678 0.09569429
000110 8a 83 4e bd 4a ee 74 3d 4e bc 94 bd 25 95 80 bd
       -0.050418414 0.059797563 -0.07262479 -0.06278447
000120 62 65 af 3d 17 d9 37 3d 99 f2 c6 3d d5 7b 99 3d
       0.08564259 0.044884767 0.097142406 0.07494322
000130 0f b7 ef 3c c8 73 cb 3d 41 5c a1 3c e8 20 95 3c
       0.029262094 0.09934193 0.01969731 0.018204167
000140 8d 07 53 bc b0 a7 47 3d 94 f6 05 bd af 51 42 bc
       -0.012880218 0.048743904 -0.03270586 -0.011860295
000150 d0 5b 94 bd 7f aa 25 bd 44 5d d5 3d 51 1f 02 bc
       -0.07244074 -0.0404458 0.1041818 -0.007942037
000160 c3 b9 8f 3d 45 5c 4f 3d b1 82 f6 3c ea ad 2a bd
       0.07017853 0.050625104 0.030091615 -0.041669764
000170 96 d3 08 bd 2d 5d ef 3d 44 2d b6 3c b1 bb d8 bc
       -0.03340491 0.11687694 0.022238381 -0.026456686
000180 ca cb d5 bd 99 a9 9f bd ab e7 39 bd 9b 6f de bb
       -0.1043926 -0.0779602 -0.04538695 -0.0067882068
000190 eb 82 3a bd ca d5 30 bd 27 1c ff 3c 36 2c 71 bb
       -0.04553501 -0.043172635 0.031141354 -0.0036800033
0001a0 c2 07 75 bd 74 4e 08 bd b5 9e 90 3d 86 ad bb bc
       -0.05982185 -0.033277944 0.07061521 -0.02290989
0001b0 2f 3f a7 bd 19 81 f6 3b 9b b0 ab 3d 79 6f e9 bb
       -0.08166348 0.007522714 0.08383294 -0.0071238843
0001c0 33 3c 23 bd 16 6c ba 3d 0f aa 9f 3d 95 92 96 3d
       -0.039852332 0.09102647 0.07796108 0.07352177
0001d0 4b 36 17 3c 59 97 27 bd a8 ef 37 bd 57 8a 18 bd
       0.009229253 -0.04091582 -0.04490629 -0.037241306
0001e0 0e 5d 93 bb 5c 2b e3 3d 84 fa 44 bd 8e bf 8e 3d
       -0.004497177 0.110922545 -0.048090473 0.0697013
0001f0 99 90 aa bd 2c b1 47 3d b5 cd af 3d 90 4f 53 bc
       -0.08328361 0.04875295 0.085841574 -0.012897387

layers.3.weight f4 [64, 128]
000000 07 5e 12 3d d9 0f bb 3d f9 48 c1 3d d3 39 9e bb
       0.035734203 0.09133882 0.094377466 -0.0048286705
000010 15 38 03 3e 62 e1 b6 bb e6 0a f2 bc 11 bb 01 bd
       0.12814362 -0.005581067 -0.029546212 -0.03167254
000020 be 05 d7 3d 5f 9a 27 bd 22 0c 06 3e 30 f9 6f bd
       0.10499142 -0.040918704 0.13090566 -0.058587253
000030 50 4e 6a bc 68 55 a9 3d 4b fe ee bc d6 8d ec 3c
       -0.014300898 0.08268243 -0.02917399 0.028876226
000040 9d 9e 33 3d 1d cf 83 3d d8 61 ef bc 57 2e a1 bd
       0.043852437 0.06435988 -0.02922146 -0.07870167
000050 07 99 f8 bc 89 96 3b 3e 6a bb 84 3d a3 cd 81 bc
       -0.030346407 0.18319143 0.06481059 -0.015845126
000060 ed b9 bf bb b7 b4 08 bd f8 ea 74 3d ed ee b1 3d
       -0.0058510215 -0.033375468 0.059794396 0.086881496
000070 5d 55 e3 bd b7 a9 15 3d 23 71 df bc 86 43 74 3c
       -0.11100266 0.036538806 -0.027275627 0.014908677
000080 ed d8 5f bd ae ee 00 3d 77 56 34 3e 8e 46 35 3d
       -0.054650236 0.031477623 0.17611109 0.04425674
000090 52 0a 27 3d 18 93 84 3c a7 f9 23 3c 28 2c 8c 3d
       0.040781327 0.016183421 0.010008252 0.0684436
0000a0 4d 37 96 3d 5a c7 ae 3d 11 1d 01 bd 64 bb ed bd
       0.073347665 0.08534117 -0.03152186 -0.116080076
0000b0 fe 55 60 bb 40 37 8c 3d 26 e1 1b bb 38 b5 c2 3d
       -0.0034230943 0.068464756 -0.0023785322 0.09507221
0000c0 56 83 b2 3c 9f 12 90 3b d9 ae f4 3d 90 ab 20 bd
       0.021791141 0.004396751 0.11947412 -0.039226115
0000d0 e6 42 c5 bc ab e8 76 3d a3 be e2 bd 0f 68 66 3c
       -0.024079751 0.060280483 -0.11071517 0.014062895
0000e0 db 4f 18 3c 79 66 59 3d f2 ea b4 3d 94 01 d9 bc
       0.009296383 0.05307624 0.08833875 -0.02649001
0000f0 b0 c9 be bd 77 af a7 bc 23 a8 27 bc 45 b9 e5 bc
       -0.093158126 -0.02046941 -0.010232958 -0.028042445
000100 ff 66 7d bd 98 cd 05 3e 88 c9 50 3d 7b 4d 4a 3d
       -0.061865803 0.13066709 0.050973445 0.049390297
000110 2b 8b f5 3d f8 19 a1 bd e0 0c a0 3d 46 fd e7 3d
       0.11989435 -0.07866281 0.07814956 0.11327605
000120 f9 b1 23 3d ef b4 00 3e 0f 1f 53 bd cf c0 5e 3d
       0.03996465 0.1256902 -0.05154329 0.054383095
000130 39 72 6e bd 9d 89 01 3d b3 6d dd bd 11 9e d7 3d
       -0.0582144 0.03162538 -0.10811939 0.10528196
000140 f4 63 4e 3d d8 38 01 3c a0 25 60 3c 38 4a 90 bc
       0.05038829 0.007887088 0.0136808455 -0.017613515
000150 46 a7 d7 3c 67 2c 9d 3d fa 33 a8 3d b7 08 b0 3d
       0.02632488 0.07674485 0.08213039 0.08595412
000160 fe ae 1a 3d d0 9d 25 bb 86 ac ed 3c 49 1a a0 ba
       0.03776454 -0.0025271066 0.02901293 -0.0012214865
000170 d2 26 fd 3d a8 b4 49 bd 08 cf c8 3b e9 b7 4f 3d
       0.1236092 -0.049244553 0.0061281957 0.0507125
000180 92 1f 31 3d 63 c7 68 3d ab 82 6f bb 7e 63 40 3c
       0.043243 0.056830775 -0.003654639 0.011742471
000190 60 1b f9 3d b7 0d 17 bc 1d 87 82 3d fa 8a 93 bd
       0.121634245 -0.0092195785 0.06373427 -0.07204242
0001a0 08 cb 9e 3d c9 a1 cf 3c 0b d1 da 3b 1c 48 0a bd
       0.07753569 0.0253457 0.006677752 -0.033760175
0001b0 33 42 1e 3d 77 83 61 bd 82 a1 fe 3c b1 70 e0 3c
       0.03863735 -0.055057015 0.031082872 0.027397485
0001c0 f0 08 52 3d 1f 77 8f 3c 45 9e 69 bc 93 be a3 3d
       0.051278055 0.017512856 -0.014258926 0.079953335
0001d0 58 d9 a5 3d d8 9d 35 3d 55 52 1a 3c bc 44 c8 bb
       0.08098096 0.044339985 0.009419044 -0.0061117094
0001e0 a3 12 c7 3c 8e 47 f0 3c 76 89 c0 bb 93 80 a7 3d
       0.024300879 0.029330995 -0.0058757616 0.081788205
0001f0 c0 37 f4 3c 11 a8 ec b9 b3 63 33 3d a3 05 f1 3d
       0.02981174 -0.00045138647 0.043796252 0.11768653
000200 8c f7 78 3d 01 9b 3a bd ec ba 25 3c e6 53 46 3c
       0.060782954 -0.04555798 0.010115366 0.012104964
000210 cd 20 93 bd 08 02 d2 bb f7 7d d4 bc ab 57 0a bd
       -0.07183991 -0.0064089336 -0.025938971 -0.033775013
000220 eb 30 ea bc f7 17 87 3c a5 7c 68 bd 4c 05 93 3b
       -0.028587779 0.01649092 -0.056759495 0.0044867154
000230 b0 91 32 bd 11 7c 3f 3c 29 d1 5e bd 81 fa 25 3c
       -0.04359597 0.011687295 -0.05439869 0.010130526
000240 8f 0e db bc 0f b4 53 bc 07 cd ee 3c 6c 6e a4 3c
       -0.02674034 -0.012921347 0.029150499 0.020072185
000250 db fa 36 bd 21 6f 93 bd cf b6 1d 3d f4 17 b7 bb
       -0.04467283 -0.071989305 0.038504418 -0.005587572
000260 e2 7d 73 bc 14 98 1f 3d 6e 63 d9 3a 95 f7 08 3d
       -0.014861556 0.038963392 0.0016585418 0.033439238
000270 5d 98 12 ba 56 a0 d9 bc 6d 22 e1 3d 41 1a cb bb
       -0.0005592162 -0.026565712 0.10992894 -0.006198198
000280 46 b7 d3 3c d7 bc 01 3d ae 76 73 bc f0 19 0b bd
       0.025844228 0.031674232 -0.014859838 -0.033960283
000290 cf 58 2b 3b c7 39 93 bd 19 c1 28 bd a4 38 cf 3c
       0.0026145463 -0.071887545 -0.041199777 0.025295563
0002a0 53 0d ab bc e4 72 e8 bc 6f fa 07 3c ae 07 ab 3d
       -0.020880377 -0.028375097 0.008299454 0.08351074
0002b0 ed 34 65 3c 81 7a ee bc e6 b6 06 bd d2 8a 99 bc
       0.013989669 -0.029111149 -0.03288927 -0.018742952
0002c0 25 f6 15 bd df be 8f bd a1 a8 93 bd cd f4 09 3d
       -0.036611695 -0.07018828 -0.07209898 0.033680726
0002d0 0a b7 4f 3d 24 bd ca bb d9 e0 39 bc a4 03 32 b8
       0.05071167 -0.006187098 -0.011345112 -4.2441898e-05
0002e0 dc e2 8b 3c 5d 5a 88 bd eb af 4d 3c 15 52 d4 bc
       0.017075948 -0.066578604 0.012554149 -0.025918046
0002f0 0b e8 c1 3d 71 e2 1f 3d 91 f8 4e 3a 42 b1 ff bc
       0.09468087 0.03903431 0.00078953156 -0.031212453
000300 e8 da a3 bb be 3e 5f 3d b6 71 a4 bc db 4b 4c 3b
       -0.005000461 0.054503195 -0.020073753 0.0031173143
000310 54 0f b9 bd 57 cd 95 bc 85 88 06 bd f7 19 05 bd
       -0.09036127 -0.01828639 -0.03284504 -0.032495465
000320 c2 a9 36 3d 78 c8 17 3d 03 64 08 3d 9d 80 a2 3c
       0.044595487 0.037056416 0.033298504 0.019836718
000330 3b 79 40 bd bc 4c be 3c 3c a0 0b 3c ed d9 e8 bc
       -0.046990614 0.02322995 0.00852209 -0.028424228
000340 ec eb 22 3d 85 cb 5d 3c 6c 7b 86 bb 5c 3c 0b 3d
       0.039775774 0.013537292 -0.0041040685 0.03399311
000350 69 29 10 bd 57 04 e6 bc ac dd ed 3c f1 29 03 bd
       -0.03519574 -0.028078241 0.029036365 -0.03202242
000360 a0 8c 05 3d e0 5e f4 3c 0f 05 bd 3c f1 4e 56 bc
       0.032604814 0.029830396 0.023073701 -0.013080345
000370 69 cb a0 bd 9a 56 32 3d aa 40 b4 bc 6a 38 15 bd
       -0.078512974 0.04353962 -0.02200349 -0.036430754
000380 83 b2 4f bd 3d 8a 91 3c 32 fa 09 bd ca 7f 0a 3d
       -0.05070735 0.017766112 -0.03368587 0.033813275
000390 42 7d 03 3d b5 c2 96 bc 05 a4 6f 3b a6 74 48 bd
       0.032101877 -0.01840339 0.003656627 -0.04893937
0003a0 5d eb b7 3c 5c cc 12 3d b7 e7 35 3c 15 bd 6f 3d
       0.022451097 0.035839424 0.011102608 0.058529932
0003b0 66 4d 67 bd c7 1f 60 3c d7 f7 26 bd ac 28 ae 3c
       -0.056470297 0.013679451 -0.040763702 0.021259628
0003c0 04 fc 17 3d bb d2 d3 3a 9e 6e 11 3d dc 3b 17 3d
       0.037105575 0.0016160825 0.035505883 0.03692232
0003d0 72 d9 69 3b 67 7b 35 3c 8d ef 2f 3d 47 f5 8f bc
       0.0035682586 0.011076785 0.042953063 -0.017573012
0003e0 f4 6b 6b bd 15 30 41 3d 01 34 f8 bc 29 88 49 bd
       -0.057476 0.047164995 -0.030298235 -0.049202118
0003f0 5d 6b 0c bc fd b9 ed bc 76 09 a3 bc ba ea 81 3c
       -0.008570519 -0.02901935 -0.019901972 0.015858997

layers.3.bias f4 [64]
000000 46 27 e7 bc ba 8d 33 bc 01 fc 0b 3d 68 6d 2b 3d
       -0.02821697 -0.010959083 0.034175877 0.041852385
000010 3c 08 c3 bc e6 14 96 3d 4f de a3 39 02 9f 49 3a
       -0.023807637 0.07328205 0.00031255416 0.00076912355
000020 db 2a 64 bd b7 68 30 bb f1 46 ec bb 2c 07 f2 bc
       -0.055704933 -0.0026917884 -0.0072106053 -0.029544435
000030 fa 67 42 bd 70 d1 00 bd 15 f0 06 bb 81 4b 9a 3d
       -0.04746244 -0.031449735 -0.0020589877 0.075339325
000040 64 d6 3c 3c bc 34 69 3d 37 f1 7a 3b 13 76 88 3c
       0.011525724 0.056935057 0.0038290748 0.016657865
000050 9b e8 4d 3d 62 d8 05 3d 71 57 ed 3c 2b 03 a2 bc
       0.050270658 0.03267706 0.02897236 -0.019776901
000060 20 8d 96 bc 7f be d8 3d 0a 6c 54 3d 13 32 87 3d
       -0.01837784 0.10583209 0.051860847 0.06601348
000070 6e 0d b0 bc 73 40 98 3d 1a 93 2a 3c e7 86 d6 3c
       -0.021490779 0.07434168 0.010411048 0.026187373
000080 2a 9f 77 3d 64 2d e8 3b 0f 98 d6 3d ab 29 de 3a
       0.060454525 0.007085489 0.104782216 0.0016949674
000090 c7 d9 a9 3d 62 0c 41 3d ac 34 f3 bb 4a 28 94 3d
       0.08293491 0.04713095 -0.0074220505 0.07234247
0000a0 15 1a 4f bb 84 2a 69 3d 5c 79 03 3d ae 17 45 bd
       -0.003160124 0.05692531 0.03209816 -0.048118286
0000b0 06 ab 24 3d 56 96 74 bc c6 f1 ad bd f8 17 c8 3b
       0.040202163 -0.014928421 -0.0849338 0.006106373
0000c0 3f 6b 97 3d 0b b8 f4 bc 8d 69 c8 3d 78 1b 8b bc
       0.073935024 -0.029872915 0.09785757 -0.016980872
0000d0 ba a0 bf bb 4d b5 25 bd df fd 40 bc aa 99 23 bc
       -0.0058480175 -0.040456105 -0.011779278 -0.009985367
0000e0 80 25 74 bd 0b 22 86 3d c3 08 85 3a a7 f6 ef 3c
       -0.059606075 0.06549462 0.0010149706 0.029292418
0000f0 e0 87 5c bc 64 48 5d bc 95 55 4f 3d 8b f6 27 bc
       -0.0134601295 -0.013506029 0.050618727 -0.0102516515

layers.6.weight f4 [32, 64]
000000 24 5a 64 3e 3d a5 04 3d 8f eb d3 3d 7f 9c 9c 3c
       0.22300011 0.032384146 0.103476636 0.019117592
000010 45 f4 5a 3e bd d2 81 3d 25 f0 11 3d da 08 db 3b
       0.21382244 0.06339023 0.03562941 0.006684405
000020 78 02 24 be e6 b1 41 3d 83 78 59 bd 66 34 b9 3d
       -0.16016567 0.047288798 -0.053093445 0.09043197
000030 e2 35 c7 bd 2e c0 12 3c 38 61 9d 3d b5 ca f3 3d
       -0.09727074 0.008956952 0.07684559 0.11903898
000040 f4 a2 8b 3c 70 ea d8 3d e0 34 97 39 bd 5e 07 3d
       0.017045476 0.105915904 0.0002884036 0.033049334
000050 9f a1 eb 3c e6 30 fb bd 1e 71 fe bd bd 5b 87 3d
       0.02876359 -0.12265186 -0.12423919 0.066092946
000060 8d a1 f0 3d 9a ee 8f 3d df c2 45 bd 28 7d 5b bc
       0.11749563 0.070279315 -0.048281547 -0.013396539
000070 0f e0 c8 3d 81 be cc b9 88 9d a0 3d 41 05 9b b9
       0.09808361 -0.0003905185 0.07842547 -0.00029567818
000080 c6 fe 8e bd 4c 30 4b 3e aa 22 82 3d 3b a1 6e 3c
       -0.06982188 0.19842643 0.06354268 0.0145648075
000090 78 e6 2d 3e 0d d1 25 3e fc 31 cb bd e5 9b cd 3d
       0.16982448 0.16193028 -0.09921643 0.100395
0000a0 2a 55 44 3d b2 53 cf 3d 2a a2 df 3d 82 01 db 3d
       0.04793278 0.101233855 0.10919602 0.10693647
0000b0 b8 9c 38 bd 59 2e 0d 3e 8d 8a 63 3d 1e cc 07 3d
       -0.045071334 0.13787211 0.055552054 0.033153646
0000c0 91 c3 c8 3d ca 7f ec 3d af 0e 02 3e d8 36 3b bc
       0.09802926 0.11547811 0.12700914 -0.01142665
0000d0 d2 6f a5 3d c9 5e 8b bc 1e d9 c2 3d bb 18 43 3d
       0.08077969 -0.01701297 0.09514068 0.047631007
0000e0 75 67 8d 3d 52 c5 04 be 8b 29 90 3c 59 05 c5 bb
       0.069044985 -0.12965897 0.017597934 -0.0060126004
0000f0 18 16 a2 bd b4 ad c0 3d c0 0e 19 be 2a 8a 70 3d
       -0.0791437 0.09408131 -0.14947033 0.058725514
000100 99 aa 90 bd ef 63 04 3d c2 58 bf bd 98 0b 82 bc
       -0.07063789 0.032321867 -0.09343101 -0.015874669
000110 ec 85 2a be 14 54 5a 3d 95 03 d7 3b cf 2c 9d bd
       -0.1665265 0.05330284 0.0065617063 -0.07674562
000120 50 6c e9 3d c2 9e 52 3e 3b 30 51 bd 84 a8 e0 bd
       0.11397612 0.20568374 -0.051071387 -0.10969642
000130 1c 95 36 bd c0 b5 8b 3d 6c d0 07 3d 81 c6 95 bc
       -0.044575796 0.068217754 0.03315775 -0.01828313
000140 3c 52 78 bc 7e 41 95 bb 54 f3 a0 b9 09 02 20 3d
       -0.015156325 -0.0045549264 -0.00030698872 0.03906444
000150 95 79 24 3d cd b8 3f 3e f8 85 f8 3d 6f 7a ee bd
       0.040155012 0.1872284 0.121349275 -0.11644446
000160 68 b4 97 bd 84 48 23 3e 9c 0a 95 3d c6 bb 83 bb
       -0.07407457 0.15945631 0.07277414 -0.004020187
000170 75 a8 36 3d 39 5b c7 3d 08 d7 88 bd 17 fb 19 3e
       0.044594247 0.09734196 -0.06681639 0.1503719
000180 1b b1 f3 3d 94 35 df bd 01 83 ab 3d 92 78 7e ba
       0.118990146 -0.10898891 0.083745964 -0.00097072974
000190 97 d5 00 3d e3 3c 1b 3d f0 b6 b2 bc b2 6e e1 bd
       0.031453695 0.037899863 -0.021815747 -0.110074416
0001a0 51 c2 cc 3d f1 dd 19 3d 7c 02 ec bd 1c 65 0e be
       0.099980004 0.037565175 -0.11523911 -0.13905758
0001b0 2a ef a2 3d af 57 eb bc e9 58 e2 bd 99 96 1d 3e
       0.07955773 -0.028728334 -0.110521145 0.1538948
0001c0 59 c8 3d bb da c1 c3 bd 4b e3 a6 3c d0 8d 2a 3d
       -0.0028958528 -0.095584586 0.020372054 0.04163915
0001d0 4a da 8a 3d 5d 12 07 3c de 7e 14 bd 73 ae 3d 3d
       0.067799166 0.008244124 -0.036253802 0.046308946
0001e0 11 0a 35 be 2f de 1d 3e 38 a4 56 bc 75 c9 8c 3d
       -0.17679621 0.15416788 -0.013100676 0.068743624
0001f0 8c bf 15 3e a2 5f 23 3d 1c 0e ba 3d 1b c2 22 3e
       0.1462385 0.039886124 0.090847224 0.15894358
000200 97 2a 1c bd c5 eb fe ba b4 4d 8d 3c ab c2 55 bc
       -0.038126554 -0.0019448927 0.017248966 -0.013046901
000210 04 73 1b be 88 4b 8f 3d d2 00 1c 3e ad 13 0f be
       -0.15180594 0.06996828 0.15234688 -0.1397235
000220 45 7a 0d be 21 7a 03 3e 4c 2e 9f 3d 73 09 22 3c
       -0.13816173 0.12839557 0.07772502 0.009889948
000230 19 16 3a be a1 5e 0a 3e 03 ca 10 3e e1 f1 13 3d
       -0.18172492 0.1351266 0.14139561 0.036119346
000240 d1 c4 e5 3b 84 d5 31 3e dc e7 24 ba e8 6e 7c bd
       0.0070119877 0.17366606 -0.0006290653 -0.061629206
000250 ee 6b 61 bc 12 d2 17 be 45 ad af bd 4e 5e e5 bd
       -0.013758643 -0.14826229 -0.085779704 -0.11199628
000260 52 8d 20 be 56 00 26 bd 37 bc d9 3b f9 61 30 3e
       -0.1567891 -0.040527664 0.0066447514 0.17224874
000270 fe f4 ab 3d fa 39 ff 3c 3f bb b2 3c b2 eb 73 3c
       0.08396338 0.031155575 0.021817802 0.014887737
000280 45 be 88 3d 33 d1 84 3d 9b 52 77 3c 41 15 17 be
       0.06676916 0.06485214 0.015095378 -0.14754201
000290 d5 4a fc 3d 86 51 bf 3c 5e a8 11 be fd 37 9d 3d
       0.123189606 0.023354303 -0.14224383 0.076766945
0002a0 8c c6 dc 3d 9c 00 54 3c 0d d5 a4 3d 6b 7a 05 be
       0.10780057 0.012939598 0.08048449 -0.1303498
0002b0 b0 f2 2f 3e fc f1 13 3e 99 a0 3f bd f1 05 a8 3d
       0.17182422 0.14447778 -0.046784017 0.08204258
0002c0 75 78 38 3e e3 5b 1e bd 4c 1c 07 3e b9 17 d1 3a
       0.180147 -0.03866185 0.13194388 0.0015952504
0002d0 15 4c ee bd e2 70 f0 bd 46 9c 0e 3d 1b 3f d3 3d
       -0.11635605 -0.11740281 0.034817003 0.10314771
0002e0 40 b3 c6 bd bb 9f 2e be d3 9d 0a 3b 4b 65 22 3d
       -0.09702158 -0.1705312 0.00211512 0.03964738
0002f0 f6 23 e9 3c 69 ab 44 3e 7b f4 c1 bd 0c 89 db 3d
       0.02845953 0.19206013 -0.09470459 0.10719499
000300 4e 41 24 3d 31 56 22 bd 95 63 67 3d 6b 48 6b 3c
       0.040101342 -0.03963298 0.056491453 0.0143605275
000310 1c 40 46 bc 0b c6 16 3e b2 f1 f2 3c 17 b1 27 be
       -0.012100246 0.14723985 0.029656265 -0.16376148
000320 3d eb 3e be e7 d7 3f 3d 65 64 a4 39 f2 dd a6 bd
       -0.18644424 0.04683676 0.00031355317 -0.081478015
000330 ee e5 e3 bd 85 c5 ca 3c 93 c5 d6 3d 0b 08 55 3d
       -0.1112784 0.024752388 0.10486903 0.052009623
000340 15 bd 99 3b ed 71 12 3e b4 ed ae ba c0 63 bd bd
       0.00469173 0.14301272 -0.0013345988 -0.092475414
000350 29 d1 95 3c df b7 76 bd 44 6d b7 bd fd 75 1a be
       0.018288212 -0.060233947 -0.08956388 -0.15084071
000360 26 cf 0a bd 43 cb 10 3e df 0a b5 3d a5 7c 35 3e
       -0.03388896 0.14140038 0.08839964 0.1772333
000370 4a ce 12 bc b9 10 fc 3d 8f 5a 17 3e d9 b4 2c 3e
       -0.008960316 0.12307877 0.14780639 0.16865863
000380 c4 50 90 3d 79 32 8d 3d 9e 21 cb 3d 7f f8 0b be
       0.07046655 0.068943925 0.09918521 -0.13669012
000390 6e 06 d4 3c 47 c7 b4 3c 9d ec f4 bd 42 6a 1c 3e
       0.025881972 0.02206768 -0.11959193 0.15274909
0003a0 f2 96 0b 3d f0 60 46 3d 8a 4e 58 3d a6 02 c2 bd
       0.0340795 0.04843229 0.052809276 -0.094731614
0003b0 75 72 28 3e 33 02 da 3d 67 9d b2 3c 16 34 0a 3e
       0.16449912 0.10644951 0.02180357 0.13496432
0003c0 d9 a2 e2 3d 67 db ba bc 18 84 35 3d 8d 0d 89 3d
       0.11066217 -0.022809697 0.044315428 0.06692038
0003d0 18 99 94 bd 16 60 05 bc 22 c0 e3 bc aa 0a b8 3d
       -0.07255763 -0.008140584 -0.027801577 0.08986409
0003e0 8e 7a 9c bd 89 cb 2a be fc 11 bf 3b bd 0d 2e 3e
       -0.07640563 -0.16679205 0.0058310013 0.16997428
0003f0 0d d1 0f 3d a2 40 ed 3d ee 09 2a be 5c 9e 07 3e
       0.035111476 0.11584593 -0.1660535 0.13244003

layers.6.bias f4 [32]
000000 3f 6d 59 bd fc ed 0d 3d f1 76 bb 3d 07 57 ae 3d
       -0.0530827 0.034650788 0.09153546 0.08512693
000010 48 4d 9f 3c f5 59 d8 3d 21 ae 3d 3c 4c bc 02 3d
       0.01944603 0.10564033 0.01157716 0.031917855
000020 75 40 af 3d 28 9f 78 3d 02 54 91 3d 0f fd 99 3b
       0.08557216 0.06069866 0.07096101 0.0046993564
000030 49 50 3e bd 6e 93 a4 3d 31 cf c4 bc 1e 70 d6 3d
       -0.046463285 0.080359325 -0.024024578 0.104706034
000040 eb 48 89 bd 7a b3 cd 3d f4 61 fc 3d f1 7d ec 3c
       -0.06703361 0.10043998 0.123233706 0.028868647
000050 75 b9 9f bd 60 6f c8 3d ff b7 0e 3c 68 d0 6d 3c
       -0.07799045 0.09786868 0.00871086 0.01451502
000060 47 be bf bd 19 1e dd 3d 41 ac a6 bc 1c 09 76 3d
       -0.093624644 0.10796756 -0.020345809 0.06006728
000070 6f e6 69 3b 8c db e0 3d 20 4a 65 bb bf b9 f8 bc
       0.0035690328 0.10979375 -0.003498681 -0.030362008

layers.9.weight f4 [3, 32]
000000 95 5d a5 3c 04 62 f7 3d 05 5b 7b 3e d9 1e dc 3d
       0.020186225 0.12079242 0.2454644 0.10748071
000010 21 c0 3f 3e cb 64 f8 3d e8 00 79 3d 44 4a d0 3d
       0.18725635 0.121286 0.06079188 0.10170415
000020 22 0c f6 bd 20 ff 82 3e 38 49 fd 3d 82 15 e6 3d
       -0.12014033 0.2558527 0.12367481 0.11234571
000030 26 0f 14 3e cb d0 a8 be 54 a5 18 bd f6 d2 80 3e
       0.14458904 -0.32971796 -0.037267044 0.2516095
000040 2d 6a 82 3e 86 b5 32 be a3 7f 82 3e 54 bc 94 3e
       0.2547163 -0.17452058 0.25488004 0.29049933
000050 85 f3 2a be 8d e3 83 3d e2 6a a0 be 1b 31 6f be
       -0.16694458 0.06439886 -0.31331545 -0.23358576
000060 e6 07 2e be 95 9e 26 be 02 48 13 be dc 20 6e 3c
       -0.169952 -0.16271432 -0.14382938 0.0145342015
000070 d8 57 b6 bd ee cf 54 3e f5 d8 b0 bc 58 f3 90 3e
       -0.089034736 0.20782444 -0.021587828 0.28310657
000080 cc 66 23 3d 51 19 88 be 65 be a4 bd c1 60 27 be
       0.039892957 -0.26581815 -0.080441274 -0.16345502
000090 09 9b 95 be 71 64 2a 3e b4 ee 9d 3d c6 98 6b be
       -0.29219845 0.16639878 0.07711545 -0.23007497
0000a0 92 ba cb 3d e2 1b e6 bd 5a 22 5c be 24 0d 03 3e
       0.09947695 -0.11235787 -0.21497479 0.12797982
0000b0 f8 c0 29 3e 34 ed 01 3e a6 91 8d 3c 43 9c 8c be
       0.16577518 0.12688142 0.017281365 -0.27462968
0000c0 c8 14 46 be 17 7f f3 bd e9 7b 1d 3b d7 5f 6d be
       -0.19343865 -0.11889475 0.0024030155 -0.23181091
0000d0 de 53 7e 3e e2 63 7b be 26 cd 9b bd 5b 97 83 3e
       0.2483668 -0.24549821 -0.07607488 0.25701413
0000e0 36 89 94 3e 20 9a 95 3e f4 03 8a 3d 0f 2a f2 3d
       0.29010934 0.2921915 0.06739035 0.11824428
0000f0 b7 58 1e be ca 46 04 be 7b e4 5a 3d ff 5e 33 be
       -0.1546353 -0.12917629 0.053440552 -0.17516707
000100 db 47 87 be a4 7f 58 3e 70 61 96 be 5c 34 70 be
       -0.2642201 0.21142441 -0.29371214 -0.23457474
000110 d6 88 b8 3d 5d 17 93 be ad 7b 20 3d 4e 0a 28 3e
       0.090104744 -0.28728762 0.039180446 0.16410181
000120 66 93 c3 bd 84 10 20 be 12 1f dd bd 0c c6 83 be
       -0.095495984 -0.156313 -0.10796942 -0.25737035
000130 05 fd 6a be 82 30 78 3e 5a 06 b4 ba 42 6e 51 be
       -0.22948082 0.24237254 -0.0013734803 -0.20452216
000140 9e b7 6d 3d fc 72 b9 3e 19 b9 33 be 85 ce 6a be
       0.05803644 0.3622054 -0.17551078 -0.22930343
000150 e9 1c c9 bc 89 39 29 3e 98 b8 8f 3d 25 72 86 be
       -0.024549918 0.16525854 0.0701763 -0.2625896
000160 46 01 11 be 1c b1 ae bd 14 24 05 bd 8f a6 5e be
       -0.14160642 -0.08529875 -0.03250511 -0.21743225
000170 f8 fc c2 bd b1 e1 dc bd 58 61 10 be fe 0b 8e be
       -0.09520906 -0.10785235 -0.14099634 -0.27743524

layers.9.bias f4 [3]
000000 f2 08 29 be 61 59 84 3d 34 94 d1 bd
       -0.16507319 0.0646236 -0.10233346
